{"keras_version": "2.2.4-tf", "config": {"output_layers": ["activation_17", 0, 0], "name": "model", "input_layers": ["input_1", 0, 0], "layers": [{"name": "input_1", "config": {"batch_input_shape": [null, 128, 128, 1], "dtype": "float32", "name": "input_1", "sparse": false}, "inbound_nodes": [], "class_name": "InputLayer"}, {"name": "conv2d", "config": {"bias_regularizer": null, "bias_initializer": {"config": {}, "class_name": "Zeros"}, "padding": "same", "trainable": true, "dilation_rate": [1, 1], "kernel_constraint": null, "activity_regularizer": null, "dtype": "float32", "activation": "linear", "kernel_size": [3, 3], "kernel_initializer": {"config": {"seed": null}, "class_name": "GlorotUniform"}, "use_bias": true, "name": "conv2d", "kernel_regularizer": null, "strides": [1, 1], "data_format": "channels_last", "bias_constraint": null, "filters": 16}, "inbound_nodes": [["input_1", 0, 0, {}]], "class_name": "Conv2D"}, {"name": "batch_normalization_v2", "config": {"gamma_constraint": null, "axis": [3], "gamma_initializer": {"config": {}, "class_name": "Ones"}, "trainable": true, "center": true, "moving_mean_initializer": {"config": {}, "class_name": "Zeros"}, "scale": true, "dtype": "float32", "gamma_regularizer": null, "epsilon": 0.001, "momentum": 0.99, "beta_constraint": null, "name": "batch_normalization_v2", "beta_initializer": {"config": {}, "class_name": "Zeros"}, "moving_variance_initializer": {"config": {}, "class_name": "Ones"}, "beta_regularizer": null}, "inbound_nodes": [["conv2d", 0, 0, {}]], "class_name": "BatchNormalizationV2"}, {"name": "activation", "config": {"dtype": "float32", "name": "activation", "trainable": true, "activation": "relu"}, "inbound_nodes": [["batch_normalization_v2", 0, 0, {}]], "class_name": "Activation"}, {"name": "spatial_dropout2d", "config": {"rate": 0.5, "name": "spatial_dropout2d", "trainable": true, "dtype": "float32", "noise_shape": null, "seed": null}, "inbound_nodes": [["activation", 0, 0, {}]], "class_name": "SpatialDropout2D"}, {"name": "conv2d_1", "config": {"bias_regularizer": null, "bias_initializer": {"config": {}, "class_name": "Zeros"}, "padding": "same", "trainable": true, "dilation_rate": [1, 1], "kernel_constraint": null, "activity_regularizer": null, "dtype": "float32", "activation": "linear", "kernel_size": [3, 3], "kernel_initializer": {"config": {"seed": null}, "class_name": "GlorotUniform"}, "use_bias": true, "name": "conv2d_1", "kernel_regularizer": null, "strides": [1, 1], "data_format": "channels_last", "bias_constraint": null, "filters": 16}, "inbound_nodes": [["spatial_dropout2d", 0, 0, {}]], "class_name": "Conv2D"}, {"name": "batch_normalization_v2_1", "config": {"gamma_constraint": null, "axis": [3], "gamma_initializer": {"config": {}, "class_name": "Ones"}, "trainable": true, "center": true, "moving_mean_initializer": {"config": {}, "class_name": "Zeros"}, "scale": true, "dtype": "float32", "gamma_regularizer": null, "epsilon": 0.001, "momentum": 0.99, "beta_constraint": null, "name": "batch_normalization_v2_1", "beta_initializer": {"config": {}, "class_name": "Zeros"}, "moving_variance_initializer": {"config": {}, "class_name": "Ones"}, "beta_regularizer": null}, "inbound_nodes": [["conv2d_1", 0, 0, {}]], "class_name": "BatchNormalizationV2"}, {"name": "activation_1", "config": {"dtype": "float32", "name": "activation_1", "trainable": true, "activation": "relu"}, "inbound_nodes": [["batch_normalization_v2_1", 0, 0, {}]], "class_name": "Activation"}, {"name": "spatial_dropout2d_1", "config": {"rate": 0.5, "name": "spatial_dropout2d_1", "trainable": true, "dtype": "float32", "noise_shape": null, "seed": null}, "inbound_nodes": [["activation_1", 0, 0, {}]], "class_name": "SpatialDropout2D"}, {"name": "max_pooling2d", "config": {"strides": [2, 2], "padding": "valid", "name": "max_pooling2d", "trainable": true, "pool_size": [2, 2], "dtype": "float32", "data_format": "channels_last"}, "inbound_nodes": [["spatial_dropout2d_1", 0, 0, {}]], "class_name": "MaxPooling2D"}, {"name": "conv2d_2", "config": {"bias_regularizer": null, "bias_initializer": {"config": {}, "class_name": "Zeros"}, "padding": "same", "trainable": true, "dilation_rate": [1, 1], "kernel_constraint": null, "activity_regularizer": null, "dtype": "float32", "activation": "linear", "kernel_size": [3, 3], "kernel_initializer": {"config": {"seed": null}, "class_name": "GlorotUniform"}, "use_bias": true, "name": "conv2d_2", "kernel_regularizer": null, "strides": [1, 1], "data_format": "channels_last", "bias_constraint": null, "filters": 32}, "inbound_nodes": [["max_pooling2d", 0, 0, {}]], "class_name": "Conv2D"}, {"name": "batch_normalization_v2_2", "config": {"gamma_constraint": null, "axis": [3], "gamma_initializer": {"config": {}, "class_name": "Ones"}, "trainable": true, "center": true, "moving_mean_initializer": {"config": {}, "class_name": "Zeros"}, "scale": true, "dtype": "float32", "gamma_regularizer": null, "epsilon": 0.001, "momentum": 0.99, "beta_constraint": null, "name": "batch_normalization_v2_2", "beta_initializer": {"config": {}, "class_name": "Zeros"}, "moving_variance_initializer": {"config": {}, "class_name": "Ones"}, "beta_regularizer": null}, "inbound_nodes": [["conv2d_2", 0, 0, {}]], "class_name": "BatchNormalizationV2"}, {"name": "activation_2", "config": {"dtype": "float32", "name": "activation_2", "trainable": true, "activation": "relu"}, "inbound_nodes": [["batch_normalization_v2_2", 0, 0, {}]], "class_name": "Activation"}, {"name": "spatial_dropout2d_2", "config": {"rate": 0.5, "name": "spatial_dropout2d_2", "trainable": true, "dtype": "float32", "noise_shape": null, "seed": null}, "inbound_nodes": [["activation_2", 0, 0, {}]], "class_name": "SpatialDropout2D"}, {"name": "conv2d_3", "config": {"bias_regularizer": null, "bias_initializer": {"config": {}, "class_name": "Zeros"}, "padding": "same", "trainable": true, "dilation_rate": [1, 1], "kernel_constraint": null, "activity_regularizer": null, "dtype": "float32", "activation": "linear", "kernel_size": [3, 3], "kernel_initializer": {"config": {"seed": null}, "class_name": "GlorotUniform"}, "use_bias": true, "name": "conv2d_3", "kernel_regularizer": null, "strides": [1, 1], "data_format": "channels_last", "bias_constraint": null, "filters": 32}, "inbound_nodes": [["spatial_dropout2d_2", 0, 0, {}]], "class_name": "Conv2D"}, {"name": "batch_normalization_v2_3", "config": {"gamma_constraint": null, "axis": [3], "gamma_initializer": {"config": {}, "class_name": "Ones"}, "trainable": true, "center": true, "moving_mean_initializer": {"config": {}, "class_name": "Zeros"}, "scale": true, "dtype": "float32", "gamma_regularizer": null, "epsilon": 0.001, "momentum": 0.99, "beta_constraint": null, "name": "batch_normalization_v2_3", "beta_initializer": {"config": {}, "class_name": "Zeros"}, "moving_variance_initializer": {"config": {}, "class_name": "Ones"}, "beta_regularizer": null}, "inbound_nodes": [["conv2d_3", 0, 0, {}]], "class_name": "BatchNormalizationV2"}, {"name": "activation_3", "config": {"dtype": "float32", "name": "activation_3", "trainable": true, "activation": "relu"}, "inbound_nodes": [["batch_normalization_v2_3", 0, 0, {}]], "class_name": "Activation"}, {"name": "spatial_dropout2d_3", "config": {"rate": 0.5, "name": "spatial_dropout2d_3", "trainable": true, "dtype": "float32", "noise_shape": null, "seed": null}, "inbound_nodes": [["activation_3", 0, 0, {}]], "class_name": "SpatialDropout2D"}, {"name": "max_pooling2d_1", "config": {"strides": [2, 2], "padding": "valid", "name": "max_pooling2d_1", "trainable": true, "pool_size": [2, 2], "dtype": "float32", "data_format": "channels_last"}, "inbound_nodes": [["spatial_dropout2d_3", 0, 0, {}]], "class_name": "MaxPooling2D"}, {"name": "conv2d_4", "config": {"bias_regularizer": null, "bias_initializer": {"config": {}, "class_name": "Zeros"}, "padding": "same", "trainable": true, "dilation_rate": [1, 1], "kernel_constraint": null, "activity_regularizer": null, "dtype": "float32", "activation": "linear", "kernel_size": [3, 3], "kernel_initializer": {"config": {"seed": null}, "class_name": "GlorotUniform"}, "use_bias": true, "name": "conv2d_4", "kernel_regularizer": null, "strides": [1, 1], "data_format": "channels_last", "bias_constraint": null, "filters": 64}, "inbound_nodes": [["max_pooling2d_1", 0, 0, {}]], "class_name": "Conv2D"}, {"name": "batch_normalization_v2_4", "config": {"gamma_constraint": null, "axis": [3], "gamma_initializer": {"config": {}, "class_name": "Ones"}, "trainable": true, "center": true, "moving_mean_initializer": {"config": {}, "class_name": "Zeros"}, "scale": true, "dtype": "float32", "gamma_regularizer": null, "epsilon": 0.001, "momentum": 0.99, "beta_constraint": null, "name": "batch_normalization_v2_4", "beta_initializer": {"config": {}, "class_name": "Zeros"}, "moving_variance_initializer": {"config": {}, "class_name": "Ones"}, "beta_regularizer": null}, "inbound_nodes": [["conv2d_4", 0, 0, {}]], "class_name": "BatchNormalizationV2"}, {"name": "activation_4", "config": {"dtype": "float32", "name": "activation_4", "trainable": true, "activation": "relu"}, "inbound_nodes": [["batch_normalization_v2_4", 0, 0, {}]], "class_name": "Activation"}, {"name": "spatial_dropout2d_4", "config": {"rate": 0.5, "name": "spatial_dropout2d_4", "trainable": true, "dtype": "float32", "noise_shape": null, "seed": null}, "inbound_nodes": [["activation_4", 0, 0, {}]], "class_name": "SpatialDropout2D"}, {"name": "conv2d_5", "config": {"bias_regularizer": null, "bias_initializer": {"config": {}, "class_name": "Zeros"}, "padding": "same", "trainable": true, "dilation_rate": [1, 1], "kernel_constraint": null, "activity_regularizer": null, "dtype": "float32", "activation": "linear", "kernel_size": [3, 3], "kernel_initializer": {"config": {"seed": null}, "class_name": "GlorotUniform"}, "use_bias": true, "name": "conv2d_5", "kernel_regularizer": null, "strides": [1, 1], "data_format": "channels_last", "bias_constraint": null, "filters": 64}, "inbound_nodes": [["spatial_dropout2d_4", 0, 0, {}]], "class_name": "Conv2D"}, {"name": "batch_normalization_v2_5", "config": {"gamma_constraint": null, "axis": [3], "gamma_initializer": {"config": {}, "class_name": "Ones"}, "trainable": true, "center": true, "moving_mean_initializer": {"config": {}, "class_name": "Zeros"}, "scale": true, "dtype": "float32", "gamma_regularizer": null, "epsilon": 0.001, "momentum": 0.99, "beta_constraint": null, "name": "batch_normalization_v2_5", "beta_initializer": {"config": {}, "class_name": "Zeros"}, "moving_variance_initializer": {"config": {}, "class_name": "Ones"}, "beta_regularizer": null}, "inbound_nodes": [["conv2d_5", 0, 0, {}]], "class_name": "BatchNormalizationV2"}, {"name": "activation_5", "config": {"dtype": "float32", "name": "activation_5", "trainable": true, "activation": "relu"}, "inbound_nodes": [["batch_normalization_v2_5", 0, 0, {}]], "class_name": "Activation"}, {"name": "spatial_dropout2d_5", "config": {"rate": 0.5, "name": "spatial_dropout2d_5", "trainable": true, "dtype": "float32", "noise_shape": null, "seed": null}, "inbound_nodes": [["activation_5", 0, 0, {}]], "class_name": "SpatialDropout2D"}, {"name": "max_pooling2d_2", "config": {"strides": [2, 2], "padding": "valid", "name": "max_pooling2d_2", "trainable": true, "pool_size": [2, 2], "dtype": "float32", "data_format": "channels_last"}, "inbound_nodes": [["spatial_dropout2d_5", 0, 0, {}]], "class_name": "MaxPooling2D"}, {"name": "conv2d_6", "config": {"bias_regularizer": null, "bias_initializer": {"config": {}, "class_name": "Zeros"}, "padding": "same", "trainable": true, "dilation_rate": [1, 1], "kernel_constraint": null, "activity_regularizer": null, "dtype": "float32", "activation": "linear", "kernel_size": [3, 3], "kernel_initializer": {"config": {"seed": null}, "class_name": "GlorotUniform"}, "use_bias": true, "name": "conv2d_6", "kernel_regularizer": null, "strides": [1, 1], "data_format": "channels_last", "bias_constraint": null, "filters": 128}, "inbound_nodes": [["max_pooling2d_2", 0, 0, {}]], "class_name": "Conv2D"}, {"name": "batch_normalization_v2_6", "config": {"gamma_constraint": null, "axis": [3], "gamma_initializer": {"config": {}, "class_name": "Ones"}, "trainable": true, "center": true, "moving_mean_initializer": {"config": {}, "class_name": "Zeros"}, "scale": true, "dtype": "float32", "gamma_regularizer": null, "epsilon": 0.001, "momentum": 0.99, "beta_constraint": null, "name": "batch_normalization_v2_6", "beta_initializer": {"config": {}, "class_name": "Zeros"}, "moving_variance_initializer": {"config": {}, "class_name": "Ones"}, "beta_regularizer": null}, "inbound_nodes": [["conv2d_6", 0, 0, {}]], "class_name": "BatchNormalizationV2"}, {"name": "activation_6", "config": {"dtype": "float32", "name": "activation_6", "trainable": true, "activation": "relu"}, "inbound_nodes": [["batch_normalization_v2_6", 0, 0, {}]], "class_name": "Activation"}, {"name": "spatial_dropout2d_6", "config": {"rate": 0.5, "name": "spatial_dropout2d_6", "trainable": true, "dtype": "float32", "noise_shape": null, "seed": null}, "inbound_nodes": [["activation_6", 0, 0, {}]], "class_name": "SpatialDropout2D"}, {"name": "conv2d_7", "config": {"bias_regularizer": null, "bias_initializer": {"config": {}, "class_name": "Zeros"}, "padding": "same", "trainable": true, "dilation_rate": [1, 1], "kernel_constraint": null, "activity_regularizer": null, "dtype": "float32", "activation": "linear", "kernel_size": [3, 3], "kernel_initializer": {"config": {"seed": null}, "class_name": "GlorotUniform"}, "use_bias": true, "name": "conv2d_7", "kernel_regularizer": null, "strides": [1, 1], "data_format": "channels_last", "bias_constraint": null, "filters": 128}, "inbound_nodes": [["spatial_dropout2d_6", 0, 0, {}]], "class_name": "Conv2D"}, {"name": "batch_normalization_v2_7", "config": {"gamma_constraint": null, "axis": [3], "gamma_initializer": {"config": {}, "class_name": "Ones"}, "trainable": true, "center": true, "moving_mean_initializer": {"config": {}, "class_name": "Zeros"}, "scale": true, "dtype": "float32", "gamma_regularizer": null, "epsilon": 0.001, "momentum": 0.99, "beta_constraint": null, "name": "batch_normalization_v2_7", "beta_initializer": {"config": {}, "class_name": "Zeros"}, "moving_variance_initializer": {"config": {}, "class_name": "Ones"}, "beta_regularizer": null}, "inbound_nodes": [["conv2d_7", 0, 0, {}]], "class_name": "BatchNormalizationV2"}, {"name": "activation_7", "config": {"dtype": "float32", "name": "activation_7", "trainable": true, "activation": "relu"}, "inbound_nodes": [["batch_normalization_v2_7", 0, 0, {}]], "class_name": "Activation"}, {"name": "spatial_dropout2d_7", "config": {"rate": 0.5, "name": "spatial_dropout2d_7", "trainable": true, "dtype": "float32", "noise_shape": null, "seed": null}, "inbound_nodes": [["activation_7", 0, 0, {}]], "class_name": "SpatialDropout2D"}, {"name": "max_pooling2d_3", "config": {"strides": [2, 2], "padding": "valid", "name": "max_pooling2d_3", "trainable": true, "pool_size": [2, 2], "dtype": "float32", "data_format": "channels_last"}, "inbound_nodes": [["spatial_dropout2d_7", 0, 0, {}]], "class_name": "MaxPooling2D"}, {"name": "conv2d_8", "config": {"bias_regularizer": null, "bias_initializer": {"config": {}, "class_name": "Zeros"}, "padding": "same", "trainable": true, "dilation_rate": [1, 1], "kernel_constraint": null, "activity_regularizer": null, "dtype": "float32", "activation": "linear", "kernel_size": [3, 3], "kernel_initializer": {"config": {"seed": null}, "class_name": "GlorotUniform"}, "use_bias": true, "name": "conv2d_8", "kernel_regularizer": null, "strides": [1, 1], "data_format": "channels_last", "bias_constraint": null, "filters": 256}, "inbound_nodes": [["max_pooling2d_3", 0, 0, {}]], "class_name": "Conv2D"}, {"name": "batch_normalization_v2_8", "config": {"gamma_constraint": null, "axis": [3], "gamma_initializer": {"config": {}, "class_name": "Ones"}, "trainable": true, "center": true, "moving_mean_initializer": {"config": {}, "class_name": "Zeros"}, "scale": true, "dtype": "float32", "gamma_regularizer": null, "epsilon": 0.001, "momentum": 0.99, "beta_constraint": null, "name": "batch_normalization_v2_8", "beta_initializer": {"config": {}, "class_name": "Zeros"}, "moving_variance_initializer": {"config": {}, "class_name": "Ones"}, "beta_regularizer": null}, "inbound_nodes": [["conv2d_8", 0, 0, {}]], "class_name": "BatchNormalizationV2"}, {"name": "activation_8", "config": {"dtype": "float32", "name": "activation_8", "trainable": true, "activation": "relu"}, "inbound_nodes": [["batch_normalization_v2_8", 0, 0, {}]], "class_name": "Activation"}, {"name": "spatial_dropout2d_8", "config": {"rate": 0.5, "name": "spatial_dropout2d_8", "trainable": true, "dtype": "float32", "noise_shape": null, "seed": null}, "inbound_nodes": [["activation_8", 0, 0, {}]], "class_name": "SpatialDropout2D"}, {"name": "conv2d_transpose", "config": {"bias_regularizer": null, "bias_initializer": {"config": {}, "class_name": "Zeros"}, "padding": "same", "trainable": true, "dilation_rate": [1, 1], "kernel_constraint": null, "activity_regularizer": null, "dtype": "float32", "activation": "linear", "kernel_size": [2, 2], "kernel_initializer": {"config": {"seed": null}, "class_name": "GlorotUniform"}, "use_bias": true, "name": "conv2d_transpose", "kernel_regularizer": null, "strides": [2, 2], "data_format": "channels_last", "bias_constraint": null, "output_padding": null, "filters": 128}, "inbound_nodes": [["spatial_dropout2d_8", 0, 0, {}]], "class_name": "Conv2DTranspose"}, {"name": "concatenate", "config": {"dtype": "float32", "name": "concatenate", "axis": -1, "trainable": true}, "inbound_nodes": [[["spatial_dropout2d_7", 0, 0, {}], ["conv2d_transpose", 0, 0, {}]]], "class_name": "Concatenate"}, {"name": "conv2d_9", "config": {"bias_regularizer": null, "bias_initializer": {"config": {}, "class_name": "Zeros"}, "padding": "same", "trainable": true, "dilation_rate": [1, 1], "kernel_constraint": null, "activity_regularizer": null, "dtype": "float32", "activation": "linear", "kernel_size": [3, 3], "kernel_initializer": {"config": {"seed": null}, "class_name": "GlorotUniform"}, "use_bias": true, "name": "conv2d_9", "kernel_regularizer": null, "strides": [1, 1], "data_format": "channels_last", "bias_constraint": null, "filters": 128}, "inbound_nodes": [["concatenate", 0, 0, {}]], "class_name": "Conv2D"}, {"name": "batch_normalization_v2_9", "config": {"gamma_constraint": null, "axis": [3], "gamma_initializer": {"config": {}, "class_name": "Ones"}, "trainable": true, "center": true, "moving_mean_initializer": {"config": {}, "class_name": "Zeros"}, "scale": true, "dtype": "float32", "gamma_regularizer": null, "epsilon": 0.001, "momentum": 0.99, "beta_constraint": null, "name": "batch_normalization_v2_9", "beta_initializer": {"config": {}, "class_name": "Zeros"}, "moving_variance_initializer": {"config": {}, "class_name": "Ones"}, "beta_regularizer": null}, "inbound_nodes": [["conv2d_9", 0, 0, {}]], "class_name": "BatchNormalizationV2"}, {"name": "activation_9", "config": {"dtype": "float32", "name": "activation_9", "trainable": true, "activation": "relu"}, "inbound_nodes": [["batch_normalization_v2_9", 0, 0, {}]], "class_name": "Activation"}, {"name": "spatial_dropout2d_9", "config": {"rate": 0.5, "name": "spatial_dropout2d_9", "trainable": true, "dtype": "float32", "noise_shape": null, "seed": null}, "inbound_nodes": [["activation_9", 0, 0, {}]], "class_name": "SpatialDropout2D"}, {"name": "conv2d_10", "config": {"bias_regularizer": null, "bias_initializer": {"config": {}, "class_name": "Zeros"}, "padding": "same", "trainable": true, "dilation_rate": [1, 1], "kernel_constraint": null, "activity_regularizer": null, "dtype": "float32", "activation": "linear", "kernel_size": [3, 3], "kernel_initializer": {"config": {"seed": null}, "class_name": "GlorotUniform"}, "use_bias": true, "name": "conv2d_10", "kernel_regularizer": null, "strides": [1, 1], "data_format": "channels_last", "bias_constraint": null, "filters": 128}, "inbound_nodes": [["spatial_dropout2d_9", 0, 0, {}]], "class_name": "Conv2D"}, {"name": "batch_normalization_v2_10", "config": {"gamma_constraint": null, "axis": [3], "gamma_initializer": {"config": {}, "class_name": "Ones"}, "trainable": true, "center": true, "moving_mean_initializer": {"config": {}, "class_name": "Zeros"}, "scale": true, "dtype": "float32", "gamma_regularizer": null, "epsilon": 0.001, "momentum": 0.99, "beta_constraint": null, "name": "batch_normalization_v2_10", "beta_initializer": {"config": {}, "class_name": "Zeros"}, "moving_variance_initializer": {"config": {}, "class_name": "Ones"}, "beta_regularizer": null}, "inbound_nodes": [["conv2d_10", 0, 0, {}]], "class_name": "BatchNormalizationV2"}, {"name": "activation_10", "config": {"dtype": "float32", "name": "activation_10", "trainable": true, "activation": "relu"}, "inbound_nodes": [["batch_normalization_v2_10", 0, 0, {}]], "class_name": "Activation"}, {"name": "spatial_dropout2d_10", "config": {"rate": 0.5, "name": "spatial_dropout2d_10", "trainable": true, "dtype": "float32", "noise_shape": null, "seed": null}, "inbound_nodes": [["activation_10", 0, 0, {}]], "class_name": "SpatialDropout2D"}, {"name": "conv2d_transpose_1", "config": {"bias_regularizer": null, "bias_initializer": {"config": {}, "class_name": "Zeros"}, "padding": "same", "trainable": true, "dilation_rate": [1, 1], "kernel_constraint": null, "activity_regularizer": null, "dtype": "float32", "activation": "linear", "kernel_size": [2, 2], "kernel_initializer": {"config": {"seed": null}, "class_name": "GlorotUniform"}, "use_bias": true, "name": "conv2d_transpose_1", "kernel_regularizer": null, "strides": [2, 2], "data_format": "channels_last", "bias_constraint": null, "output_padding": null, "filters": 64}, "inbound_nodes": [["spatial_dropout2d_10", 0, 0, {}]], "class_name": "Conv2DTranspose"}, {"name": "concatenate_1", "config": {"dtype": "float32", "name": "concatenate_1", "axis": -1, "trainable": true}, "inbound_nodes": [[["spatial_dropout2d_5", 0, 0, {}], ["conv2d_transpose_1", 0, 0, {}]]], "class_name": "Concatenate"}, {"name": "conv2d_11", "config": {"bias_regularizer": null, "bias_initializer": {"config": {}, "class_name": "Zeros"}, "padding": "same", "trainable": true, "dilation_rate": [1, 1], "kernel_constraint": null, "activity_regularizer": null, "dtype": "float32", "activation": "linear", "kernel_size": [3, 3], "kernel_initializer": {"config": {"seed": null}, "class_name": "GlorotUniform"}, "use_bias": true, "name": "conv2d_11", "kernel_regularizer": null, "strides": [1, 1], "data_format": "channels_last", "bias_constraint": null, "filters": 64}, "inbound_nodes": [["concatenate_1", 0, 0, {}]], "class_name": "Conv2D"}, {"name": "batch_normalization_v2_11", "config": {"gamma_constraint": null, "axis": [3], "gamma_initializer": {"config": {}, "class_name": "Ones"}, "trainable": true, "center": true, "moving_mean_initializer": {"config": {}, "class_name": "Zeros"}, "scale": true, "dtype": "float32", "gamma_regularizer": null, "epsilon": 0.001, "momentum": 0.99, "beta_constraint": null, "name": "batch_normalization_v2_11", "beta_initializer": {"config": {}, "class_name": "Zeros"}, "moving_variance_initializer": {"config": {}, "class_name": "Ones"}, "beta_regularizer": null}, "inbound_nodes": [["conv2d_11", 0, 0, {}]], "class_name": "BatchNormalizationV2"}, {"name": "activation_11", "config": {"dtype": "float32", "name": "activation_11", "trainable": true, "activation": "relu"}, "inbound_nodes": [["batch_normalization_v2_11", 0, 0, {}]], "class_name": "Activation"}, {"name": "spatial_dropout2d_11", "config": {"rate": 0.5, "name": "spatial_dropout2d_11", "trainable": true, "dtype": "float32", "noise_shape": null, "seed": null}, "inbound_nodes": [["activation_11", 0, 0, {}]], "class_name": "SpatialDropout2D"}, {"name": "conv2d_12", "config": {"bias_regularizer": null, "bias_initializer": {"config": {}, "class_name": "Zeros"}, "padding": "same", "trainable": true, "dilation_rate": [1, 1], "kernel_constraint": null, "activity_regularizer": null, "dtype": "float32", "activation": "linear", "kernel_size": [3, 3], "kernel_initializer": {"config": {"seed": null}, "class_name": "GlorotUniform"}, "use_bias": true, "name": "conv2d_12", "kernel_regularizer": null, "strides": [1, 1], "data_format": "channels_last", "bias_constraint": null, "filters": 64}, "inbound_nodes": [["spatial_dropout2d_11", 0, 0, {}]], "class_name": "Conv2D"}, {"name": "batch_normalization_v2_12", "config": {"gamma_constraint": null, "axis": [3], "gamma_initializer": {"config": {}, "class_name": "Ones"}, "trainable": true, "center": true, "moving_mean_initializer": {"config": {}, "class_name": "Zeros"}, "scale": true, "dtype": "float32", "gamma_regularizer": null, "epsilon": 0.001, "momentum": 0.99, "beta_constraint": null, "name": "batch_normalization_v2_12", "beta_initializer": {"config": {}, "class_name": "Zeros"}, "moving_variance_initializer": {"config": {}, "class_name": "Ones"}, "beta_regularizer": null}, "inbound_nodes": [["conv2d_12", 0, 0, {}]], "class_name": "BatchNormalizationV2"}, {"name": "activation_12", "config": {"dtype": "float32", "name": "activation_12", "trainable": true, "activation": "relu"}, "inbound_nodes": [["batch_normalization_v2_12", 0, 0, {}]], "class_name": "Activation"}, {"name": "spatial_dropout2d_12", "config": {"rate": 0.5, "name": "spatial_dropout2d_12", "trainable": true, "dtype": "float32", "noise_shape": null, "seed": null}, "inbound_nodes": [["activation_12", 0, 0, {}]], "class_name": "SpatialDropout2D"}, {"name": "conv2d_transpose_2", "config": {"bias_regularizer": null, "bias_initializer": {"config": {}, "class_name": "Zeros"}, "padding": "same", "trainable": true, "dilation_rate": [1, 1], "kernel_constraint": null, "activity_regularizer": null, "dtype": "float32", "activation": "linear", "kernel_size": [2, 2], "kernel_initializer": {"config": {"seed": null}, "class_name": "GlorotUniform"}, "use_bias": true, "name": "conv2d_transpose_2", "kernel_regularizer": null, "strides": [2, 2], "data_format": "channels_last", "bias_constraint": null, "output_padding": null, "filters": 32}, "inbound_nodes": [["spatial_dropout2d_12", 0, 0, {}]], "class_name": "Conv2DTranspose"}, {"name": "concatenate_2", "config": {"dtype": "float32", "name": "concatenate_2", "axis": -1, "trainable": true}, "inbound_nodes": [[["spatial_dropout2d_3", 0, 0, {}], ["conv2d_transpose_2", 0, 0, {}]]], "class_name": "Concatenate"}, {"name": "conv2d_13", "config": {"bias_regularizer": null, "bias_initializer": {"config": {}, "class_name": "Zeros"}, "padding": "same", "trainable": true, "dilation_rate": [1, 1], "kernel_constraint": null, "activity_regularizer": null, "dtype": "float32", "activation": "linear", "kernel_size": [3, 3], "kernel_initializer": {"config": {"seed": null}, "class_name": "GlorotUniform"}, "use_bias": true, "name": "conv2d_13", "kernel_regularizer": null, "strides": [1, 1], "data_format": "channels_last", "bias_constraint": null, "filters": 32}, "inbound_nodes": [["concatenate_2", 0, 0, {}]], "class_name": "Conv2D"}, {"name": "batch_normalization_v2_13", "config": {"gamma_constraint": null, "axis": [3], "gamma_initializer": {"config": {}, "class_name": "Ones"}, "trainable": true, "center": true, "moving_mean_initializer": {"config": {}, "class_name": "Zeros"}, "scale": true, "dtype": "float32", "gamma_regularizer": null, "epsilon": 0.001, "momentum": 0.99, "beta_constraint": null, "name": "batch_normalization_v2_13", "beta_initializer": {"config": {}, "class_name": "Zeros"}, "moving_variance_initializer": {"config": {}, "class_name": "Ones"}, "beta_regularizer": null}, "inbound_nodes": [["conv2d_13", 0, 0, {}]], "class_name": "BatchNormalizationV2"}, {"name": "activation_13", "config": {"dtype": "float32", "name": "activation_13", "trainable": true, "activation": "relu"}, "inbound_nodes": [["batch_normalization_v2_13", 0, 0, {}]], "class_name": "Activation"}, {"name": "spatial_dropout2d_13", "config": {"rate": 0.5, "name": "spatial_dropout2d_13", "trainable": true, "dtype": "float32", "noise_shape": null, "seed": null}, "inbound_nodes": [["activation_13", 0, 0, {}]], "class_name": "SpatialDropout2D"}, {"name": "conv2d_14", "config": {"bias_regularizer": null, "bias_initializer": {"config": {}, "class_name": "Zeros"}, "padding": "same", "trainable": true, "dilation_rate": [1, 1], "kernel_constraint": null, "activity_regularizer": null, "dtype": "float32", "activation": "linear", "kernel_size": [3, 3], "kernel_initializer": {"config": {"seed": null}, "class_name": "GlorotUniform"}, "use_bias": true, "name": "conv2d_14", "kernel_regularizer": null, "strides": [1, 1], "data_format": "channels_last", "bias_constraint": null, "filters": 32}, "inbound_nodes": [["spatial_dropout2d_13", 0, 0, {}]], "class_name": "Conv2D"}, {"name": "batch_normalization_v2_14", "config": {"gamma_constraint": null, "axis": [3], "gamma_initializer": {"config": {}, "class_name": "Ones"}, "trainable": true, "center": true, "moving_mean_initializer": {"config": {}, "class_name": "Zeros"}, "scale": true, "dtype": "float32", "gamma_regularizer": null, "epsilon": 0.001, "momentum": 0.99, "beta_constraint": null, "name": "batch_normalization_v2_14", "beta_initializer": {"config": {}, "class_name": "Zeros"}, "moving_variance_initializer": {"config": {}, "class_name": "Ones"}, "beta_regularizer": null}, "inbound_nodes": [["conv2d_14", 0, 0, {}]], "class_name": "BatchNormalizationV2"}, {"name": "activation_14", "config": {"dtype": "float32", "name": "activation_14", "trainable": true, "activation": "relu"}, "inbound_nodes": [["batch_normalization_v2_14", 0, 0, {}]], "class_name": "Activation"}, {"name": "spatial_dropout2d_14", "config": {"rate": 0.5, "name": "spatial_dropout2d_14", "trainable": true, "dtype": "float32", "noise_shape": null, "seed": null}, "inbound_nodes": [["activation_14", 0, 0, {}]], "class_name": "SpatialDropout2D"}, {"name": "conv2d_transpose_3", "config": {"bias_regularizer": null, "bias_initializer": {"config": {}, "class_name": "Zeros"}, "padding": "same", "trainable": true, "dilation_rate": [1, 1], "kernel_constraint": null, "activity_regularizer": null, "dtype": "float32", "activation": "linear", "kernel_size": [2, 2], "kernel_initializer": {"config": {"seed": null}, "class_name": "GlorotUniform"}, "use_bias": true, "name": "conv2d_transpose_3", "kernel_regularizer": null, "strides": [2, 2], "data_format": "channels_last", "bias_constraint": null, "output_padding": null, "filters": 16}, "inbound_nodes": [["spatial_dropout2d_14", 0, 0, {}]], "class_name": "Conv2DTranspose"}, {"name": "concatenate_3", "config": {"dtype": "float32", "name": "concatenate_3", "axis": -1, "trainable": true}, "inbound_nodes": [[["spatial_dropout2d_1", 0, 0, {}], ["conv2d_transpose_3", 0, 0, {}]]], "class_name": "Concatenate"}, {"name": "conv2d_15", "config": {"bias_regularizer": null, "bias_initializer": {"config": {}, "class_name": "Zeros"}, "padding": "same", "trainable": true, "dilation_rate": [1, 1], "kernel_constraint": null, "activity_regularizer": null, "dtype": "float32", "activation": "linear", "kernel_size": [3, 3], "kernel_initializer": {"config": {"seed": null}, "class_name": "GlorotUniform"}, "use_bias": true, "name": "conv2d_15", "kernel_regularizer": null, "strides": [1, 1], "data_format": "channels_last", "bias_constraint": null, "filters": 16}, "inbound_nodes": [["concatenate_3", 0, 0, {}]], "class_name": "Conv2D"}, {"name": "batch_normalization_v2_15", "config": {"gamma_constraint": null, "axis": [3], "gamma_initializer": {"config": {}, "class_name": "Ones"}, "trainable": true, "center": true, "moving_mean_initializer": {"config": {}, "class_name": "Zeros"}, "scale": true, "dtype": "float32", "gamma_regularizer": null, "epsilon": 0.001, "momentum": 0.99, "beta_constraint": null, "name": "batch_normalization_v2_15", "beta_initializer": {"config": {}, "class_name": "Zeros"}, "moving_variance_initializer": {"config": {}, "class_name": "Ones"}, "beta_regularizer": null}, "inbound_nodes": [["conv2d_15", 0, 0, {}]], "class_name": "BatchNormalizationV2"}, {"name": "activation_15", "config": {"dtype": "float32", "name": "activation_15", "trainable": true, "activation": "relu"}, "inbound_nodes": [["batch_normalization_v2_15", 0, 0, {}]], "class_name": "Activation"}, {"name": "spatial_dropout2d_15", "config": {"rate": 0.5, "name": "spatial_dropout2d_15", "trainable": true, "dtype": "float32", "noise_shape": null, "seed": null}, "inbound_nodes": [["activation_15", 0, 0, {}]], "class_name": "SpatialDropout2D"}, {"name": "conv2d_16", "config": {"bias_regularizer": null, "bias_initializer": {"config": {}, "class_name": "Zeros"}, "padding": "same", "trainable": true, "dilation_rate": [1, 1], "kernel_constraint": null, "activity_regularizer": null, "dtype": "float32", "activation": "linear", "kernel_size": [3, 3], "kernel_initializer": {"config": {"seed": null}, "class_name": "GlorotUniform"}, "use_bias": true, "name": "conv2d_16", "kernel_regularizer": null, "strides": [1, 1], "data_format": "channels_last", "bias_constraint": null, "filters": 16}, "inbound_nodes": [["spatial_dropout2d_15", 0, 0, {}]], "class_name": "Conv2D"}, {"name": "batch_normalization_v2_16", "config": {"gamma_constraint": null, "axis": [3], "gamma_initializer": {"config": {}, "class_name": "Ones"}, "trainable": true, "center": true, "moving_mean_initializer": {"config": {}, "class_name": "Zeros"}, "scale": true, "dtype": "float32", "gamma_regularizer": null, "epsilon": 0.001, "momentum": 0.99, "beta_constraint": null, "name": "batch_normalization_v2_16", "beta_initializer": {"config": {}, "class_name": "Zeros"}, "moving_variance_initializer": {"config": {}, "class_name": "Ones"}, "beta_regularizer": null}, "inbound_nodes": [["conv2d_16", 0, 0, {}]], "class_name": "BatchNormalizationV2"}, {"name": "activation_16", "config": {"dtype": "float32", "name": "activation_16", "trainable": true, "activation": "relu"}, "inbound_nodes": [["batch_normalization_v2_16", 0, 0, {}]], "class_name": "Activation"}, {"name": "conv2d_17", "config": {"bias_regularizer": null, "bias_initializer": {"config": {}, "class_name": "Zeros"}, "padding": "same", "trainable": true, "dilation_rate": [1, 1], "kernel_constraint": null, "activity_regularizer": null, "dtype": "float32", "activation": "linear", "kernel_size": [3, 3], "kernel_initializer": {"config": {"seed": null}, "class_name": "GlorotUniform"}, "use_bias": true, "name": "conv2d_17", "kernel_regularizer": null, "strides": [1, 1], "data_format": "channels_last", "bias_constraint": null, "filters": 1}, "inbound_nodes": [["activation_16", 0, 0, {}]], "class_name": "Conv2D"}, {"name": "activation_17", "config": {"dtype": "float32", "name": "activation_17", "trainable": true, "activation": "sigmoid"}, "inbound_nodes": [["conv2d_17", 0, 0, {}]], "class_name": "Activation"}]}, "backend": "tensorflow", "class_name": "Model"}